data.pth (torch, 26666 bytes, 6 tensors)

l1.weight f4 [8, 257]
000000 6a 81 7c bc 33 c0 39 40 91 03 c5 bf 24 a3 a8 3f
       -0.015411714 2.902356 -1.5391713 1.3174787
000010 87 b2 1d 3f 11 a1 6c c0 6d cb 19 40 c5 f7 29 c0
       0.61600536 -3.6973307 2.4030411 -2.6557477
000020 02 c4 2a c0 20 bb 49 40 27 51 7e 40 f5 69 b7 40
       -2.6682134 3.1520462 3.9737031 5.731684
000030 b8 2a 5c be d9 b2 59 c0 fe f1 df 3f 23 bb 14 3f
       -0.21500671 -3.401541 1.7495725 0.5809805
000040 b8 a6 5a bf c1 17 26 40 f1 70 37 40 b8 a1 a8 3e
       -0.8541064 2.5951998 2.8662684 0.32935882
000050 e4 a5 82 bd e0 74 97 be a6 11 64 be 3a 7f 38 40
       -0.063792974 -0.29581356 -0.22272357 2.8827653
000060 8f 70 ce 40 64 5b 94 40 7e a9 c9 40 32 7c ee 3f
       6.45124 4.636156 6.30194 1.8631651
000070 f3 f3 fb 3f 9e da a8 bf 31 3a 76 bf 74 19 e4 3e
       1.9683822 -1.3191717 -0.96182543 0.4455067
000080 24 f9 9a 3f a6 83 1b bf f8 96 19 c0 01 95 3a 40
       1.2107282 -0.60747755 -2.3998394 2.9153445
000090 ab d0 83 40 7f 51 81 be 4a cc 9e 3f 04 be a5 40
       4.119222 -0.2525749 1.2406094 5.1794453
0000a0 1e e7 b8 3f 30 24 de 3f dc 0d 7b 40 20 04 57 40
       1.4445531 1.7354794 3.922721 3.3596268
0000b0 10 e3 96 40 01 dc d2 bf 3f b2 cc 40 12 27 bd 40
       4.7152176 -1.647339 6.3967586 5.9110193
0000c0 b0 4e 54 40 30 43 89 bf 30 01 ba bf e7 74 4e c0
       3.3173027 -1.0723629 -1.4531612 -3.2258852
0000d0 06 19 57 bf f6 04 c3 bf b5 e8 74 40 37 ed 74 40
       -0.8402256 -1.5235889 3.8267033 3.8269784
0000e0 95 84 71 3f 01 3c 3e 3f 54 8b c8 3f 06 23 81 40
       0.9434293 0.7431031 1.566752 4.0355253
0000f0 99 a9 9c 3e 05 f0 0b 40 1f 92 5f bf 37 38 a2 bf
       0.30598143 2.1865246 -0.8733234 -1.2673405
000100 32 7d 94 3e 69 16 e9 be 22 dd e6 3e 60 67 7e 40
       0.29001766 -0.4552491 0.45090586 3.9750595
000110 36 f1 92 3f 42 a0 e6 3f 96 e2 b9 3e 61 50 8d 3e
       1.1479862 1.8017657 0.36305684 0.27600387
000120 80 e3 80 3f b4 80 2b be a3 d4 83 3f 1e 04 9e 3e
       1.0069427 -0.16748315 1.0299267 0.30862516
000130 bf c2 9f bf 24 64 28 bf ad fd eb 3f 3b 07 4e 3e
       -1.2481307 -0.657778 1.8436791 0.20119946
000140 09 54 25 bf c2 bc 52 be 95 1e 4e bf a6 9a 9c 3f
       -0.6458135 -0.20579818 -0.80515414 1.2234695
000150 8a 3f 74 3f a4 82 01 c0 70 d8 b8 3f 5c fe 5a 3f
       0.9540945 -2.0235987 1.4441051 0.8554437
000160 6f 30 1a 3f 3b cf 09 40 54 5f 01 c0 cd c3 18 bf
       0.60230154 2.1532733 -2.0214434 -0.5967377
000170 90 00 d6 be f5 e4 db 3f 43 f0 52 40 81 a3 d6 3f
       -0.41797304 1.7179247 3.2959144 1.6768647
000180 fb 2d ae bf 8e 99 ea 3f f1 99 f8 3a 51 3e bf 40
       -1.3607782 1.8328111 0.0018966777 5.976357
000190 f4 52 9e 40 81 10 07 c0 81 83 c2 40 7e ed 83 3f
       4.947626 -2.1103823 6.0785527 1.0306852
0001a0 39 56 a7 40 32 7f 8a bf c2 1f 07 c0 83 61 3b c0
       5.229275 -1.0820067 -2.1113133 -2.9278266
0001b0 2d d6 01 40 e4 1f f2 3f de 78 94 be d4 8f dc 3e
       2.0286973 1.8915982 -0.28998464 0.43078482
0001c0 b2 b1 07 3f 8b d7 03 bf 2c 84 a2 3f e5 8b e5 3f
       0.53005517 -0.5150077 1.2696586 1.7933317
0001d0 b6 52 93 be 3a 37 bf be a6 e9 0c 40 7e c5 1d bf
       -0.2877404 -0.37346822 2.2017608 -0.61629474
0001e0 75 10 08 40 0d 07 0d 40 99 14 ec 3f f1 97 34 3f
       2.1260045 2.2035553 1.8443786 0.70544344
0001f0 de 42 84 40 01 07 7f be 2f 87 a3 3f b3 eb 20 40
       4.1331625 -0.24905016 1.277563 2.514386
000200 bd 11 0f 40 4c f3 5c 3e 52 d8 5f be b7 f4 82 bf
       2.2354577 0.21577185 -0.21859863 -1.0230931
000210 0f 01 8b 3f e6 a2 a0 bf be 0b 71 be db 4d 1b bf
       1.0859698 -1.2549713 -0.23539636 -0.60665673
000220 24 d2 85 3e 1a ad a9 3f 33 f3 51 c0 b0 75 ed 40
       0.26136887 1.3255951 -3.2804687 7.420616
000230 c3 42 17 40 ef 7f 9d 40 33 b2 a5 40 dd ec 2f 40
       2.3634498 4.921867 5.178003 2.748832
000240 78 27 17 be 9e 48 83 40 65 31 a3 3f 65 d3 2f 40
       -0.1476115 4.1026144 1.2749449 2.7472775
000250 c0 8a 2d 40 61 ae a3 40 11 1c a6 40 fa da 81 40
       2.7115936 5.1150365 5.190926 4.0579805
000260 2a c0 09 40 0e 6f a0 40 d7 17 08 40 b8 8e 5e 3f
       2.1523538 5.0135565 2.126455 0.8693652
000270 c4 4c 06 40 50 00 bd 40 29 6e cb 40 39 b8 a0 3e
       2.0984354 5.906288 6.3571973 0.3139055
000280 70 3d 98 40 e6 9e 58 bf c8 a4 6e 3f 2f 51 97 40
       4.7574997 -0.8461746 0.93220186 4.72866
000290 8f 4f 91 bf 2b 48 98 3e 82 03 11 bf c9 fd c8 3f
       -1.1352404 0.2974256 -0.5664598 1.5702449
0002a0 6f 02 08 40 c9 2c b3 3f cd db f3 bd 85 ba 5d be
       2.1251485 1.3998042 -0.11907158 -0.21653183
0002b0 4a 74 59 bf f6 e2 09 40 f3 f2 30 40 e0 25 30 bf
       -0.8494307 2.1544776 2.7648284 -0.6880779
0002c0 17 78 80 bf 3f 8b fe 3f a3 52 66 40 a3 1c 0b 40
       -1.0036649 1.9886245 3.5987937 2.1736228
0002d0 a7 00 74 3f 2f 70 4a be c7 aa 2f 40 38 b7 10 be
       0.95313495 -0.19769357 2.7447984 -0.14132392
0002e0 50 d6 37 be d7 30 db 3f 2a 71 ea 3e 57 6e 16 bf
       -0.17952847 1.712428 0.45789462 -0.58762115
0002f0 a5 e5 0c 3f a6 b2 00 40 d3 57 e4 3e ba ed 10 40
       0.5503791 2.0109038 0.44598255 2.2645097
000300 68 bf a6 3f 9e ea 27 40 09 1e 9d 3f e4 20 ab 3e
       1.3027163 2.623695 1.2274791 0.3342353
000310 63 46 8e bf 7f 8f e4 3e 7d 0f 1a c0 37 08 85 3f
       -1.111523 0.4464073 -2.4071953 1.0393132
000320 3b 80 80 bf 71 7a a5 3d b1 fa 6a 3f 48 56 85 3e
       -1.0039133 0.080799945 0.91788775 0.2604239
000330 3b 3c 8c 3f 8e 07 8e 40 17 10 cd 3e e5 43 86 40
       1.0955881 4.438422 0.40051338 4.195788
000340 35 8f 53 40 f1 d7 64 40 84 ff 80 be 80 6b 49 40
       3.3056157 3.57568 -0.25194943 3.1471863
000350 a0 24 61 3d 12 80 45 3f 47 39 ad 3e 4e d1 47 c0
       0.05496657 0.77148545 0.33832762 -3.12215
000360 31 82 8c 3f 07 27 3f be 0d 63 c7 3f 21 3f c5 3f
       1.0977231 -0.18667232 1.5577103 1.540989
000370 c6 66 30 bf 53 a2 85 3f eb f3 8d 3d af e1 02 40
       -0.6890682 1.0440162 0.06931289 2.0450246
000380 c4 9b 82 3f 47 97 26 be f2 8e 55 40 c5 3b 09 40
       1.0203786 -0.16268645 3.3368497 2.144273
000390 3d 08 e4 be 8f e9 a8 be 36 90 a4 bf b0 05 d2 3f
       -0.44537535 -0.3299069 -1.285651 1.6407986
0003a0 99 a8 7b be 7d bb 4d 3d a8 e8 0f 40 59 72 2b 40
       -0.24576034 0.05022763 2.2485752 2.6788542
0003b0 80 a5 05 40 85 9e b7 bc d2 05 26 40 50 d5 eb 3e
       2.0882263 -0.022414455 2.5941052 0.46061182
0003c0 c1 6b 24 bf f8 3c dc 3f 45 52 19 be 18 c9 c2 40
       -0.6422692 1.7206106 -0.1497279 6.0870476
0003d0 7f 2b ed 3f bc f7 dd 3f ff 63 98 3e 85 7b 79 bd
       1.8528899 1.7341228 0.2976379 -0.060908813
0003e0 e6 03 54 bf 19 7f 96 3f cf bc 18 3f 3c ac 6b 3f
       -0.8281845 1.1757537 0.596631 0.92059684
0003f0 7a 7a 46 c0 7f bf a1 bf a0 b9 d0 be 6f b8 10 3e
       -3.1012254 -1.2636565 -0.4076662 0.14132856

l1.bias f4 [8]
000000 12 4e 06 3e b9 76 91 3e 51 2e 25 3e 85 b6 c7 3e
       0.13115719 0.2841089 0.1613095 0.3900644
000010 5a d2 24 3d 01 33 47 3e 13 9d 01 3f 3f 68 7e 3f
       0.04023967 0.1945305 0.506303 0.99377817

l2.weight f4 [8, 8]
000000 b6 3d 9a 3f 21 87 47 40 2a f9 e3 3f 76 fb 92 3e
       1.2050083 3.1176226 1.7810414 0.28707474
000010 fc e4 71 bf f9 8b 0c c0 99 52 ba 3b 91 49 d3 3f
       -0.9449003 -2.1960433 0.005686116 1.6506826
000020 38 e3 e9 bf 95 f7 0c c0 8a 83 3f bf d3 b7 8d be
       -1.8272467 -2.2026112 -0.7481009 -0.2767931
000030 aa 06 0f 40 ec f8 0a 3f c0 4a 11 3f 52 93 4c 40
       2.2347817 0.54286075 0.56754684 3.1964917
000040 93 e3 fa bd 09 89 b2 bf 2a 46 95 3f 78 b6 37 3f
       -0.122504376 -1.394807 1.1662037 0.717628
000050 78 82 c5 bd c1 84 c5 be 14 97 fa 3e 96 18 a1 3f
       -0.096440256 -0.38577846 0.48943388 1.2585628
000060 80 7d c4 be d3 ef ad 3d 3f 6d 47 bf 01 d4 86 40
       -0.38377 0.084930085 -0.7790107 4.2133794
000070 79 38 11 c0 60 9f 64 3f e4 5f f6 be b7 ed 95 bf
       -2.2690718 0.89305687 -0.48120034 -1.171317
000080 54 d1 87 3f e9 c5 e1 3f 93 dd 06 40 ed cd 16 c0
       1.0610757 1.7638522 2.1072738 -2.3563187
000090 92 2e 38 40 02 a3 11 3e 6d b4 7b bf b6 ce 75 bf
       2.8778424 0.14222339 -0.9832218 -0.9601854
0000a0 e4 73 65 be 9c bb 8c 3f 5b c0 74 bf 29 89 c1 be
       -0.2240749 1.0994754 -0.9560601 -0.37799957
0000b0 18 10 23 bf 85 d1 0d bf 1a 82 b5 3f 0d 8d 03 40
       -0.6369643 -0.55397826 1.4180329 2.055484
0000c0 6d d8 09 40 6c 10 0e 3e f9 71 3f c0 a0 ea 96 bf
       2.1538346 0.13873452 -2.9913313 -1.1790352
0000d0 c0 3c 02 c0 59 5b 06 40 25 84 10 c0 a0 6a d0 3d
       -2.034958 2.0993254 -2.2580655 0.10176587
0000e0 0d ca 3b bf 34 60 b7 3f 59 8a 1e 40 e5 41 e2 3f
       -0.7335518 1.4326234 2.477194 1.767636
0000f0 0d f4 19 3f ff 97 c6 bd 66 67 86 40 bf 52 a5 bf
       0.60138017 -0.0969696 4.200122 -1.2915877

l2.bias f4 [8]
000000 20 ce 50 be bc c1 fa be bb db 94 be 95 98 a2 be
       -0.2039113 -0.48975933 -0.2907389 -0.31757036
000010 05 a7 83 bf 2b a0 da 3e ff 70 1d 3f a0 8d 42 be
       -1.0285345 0.42700323 0.61500543 -0.18999338

l3.weight f4 [209, 8]
000000 e9 98 b8 bf 19 4c c1 c0 25 71 b7 c0 53 87 e7 3f
       -1.4421664 -6.0405393 -5.7325616 1.8088173
000010 ec c8 27 c1 99 d8 07 c1 bf 53 3b 3f ca 5f c9 c0
       -10.486553 -8.49038 0.7317466 -6.292943
000020 59 73 46 3e 0d 4b 66 c0 4d ec 47 bf 8a 42 b7 bf
       0.19379939 -3.5983307 -0.7809494 -1.4317181
000030 09 99 c2 c0 33 df 82 bf b1 52 07 c1 09 66 a4 bf
       -6.081181 -1.0224365 -8.457688 -1.2843639
000040 1f 2d 15 c0 4f 22 2f bf d1 f4 cd be a8 37 db c0
       -2.330879 -0.68411726 -0.40225843 -6.850544
000050 1c e1 06 c1 40 bd 11 3f 69 d1 92 c0 92 03 82 c0
       -8.429958 0.569294 -4.588063 -4.062936
000060 8f 76 fd 3e 7c 77 18 c1 6d c1 6b 3e d6 f3 a7 bf
       0.49504516 -9.529171 0.23023005 -1.3121288
000070 c3 03 40 c0 ac 23 dd be 86 67 bb c0 e3 9d 02 c0
       -3.0002296 -0.43191278 -5.856387 -2.0408866
000080 bb 68 93 3f 99 6a 88 c0 7b 09 31 3f 36 4f 0d c1
       1.1516336 -4.2630124 0.6915509 -8.831839
000090 c1 ee 55 c0 0c 6a 11 c0 2c f3 df c0 13 49 f4 bf
       -3.3426974 -2.2720976 -6.998434 -1.90848
0000a0 04 c4 76 bf 0c 34 30 c0 f3 aa 05 c1 04 4a 0c 3f
       -0.96392846 -2.7531767 -8.354236 0.5480044
0000b0 53 c8 f7 c0 ee 74 59 3f bc 6d 82 c0 f2 1f 95 bf
       -7.7432036 0.84944046 -4.0758953 -1.1650374
0000c0 7a ed ec 3e 6d b4 e5 c0 f6 d8 b4 be 5a 27 28 bf
       0.4627493 -7.1782746 -0.35321778 -0.65685046
0000d0 c5 59 d3 c0 83 89 72 bf 51 07 12 c0 6e 92 e1 bf
       -6.604708 -0.94741076 -2.2816966 -1.7622812
0000e0 ba cb b1 3f c2 6d 97 c0 6b 4d c7 bf d6 be 59 c0
       1.3890297 -4.732148 -1.5570501 -3.4022727
0000f0 79 c5 60 c0 fa 25 e6 be a5 01 90 c0 11 cd 58 c0
       -3.5120528 -0.4495085 -4.5002007 -3.3875163
000100 51 2b 3d 3c 07 c6 28 c1 3d 3d a4 bf f8 9c 1f 3d
       0.011545972 -10.5483465 -1.2831188 0.038968056
000110 f3 6c 03 c1 5c 94 46 bf d8 37 da bf 9d 10 9a bf
       -8.214099 -0.7757013 -1.7048292 -1.203632
000120 65 5c dc be ef a0 30 c0 50 16 3f c0 6d 9c 97 c0
       -0.4303924 -2.7598226 -2.9857368 -4.737845
000130 c8 11 fb c0 75 db b2 3e 7f 84 f5 c0 aa a1 82 bf
       -7.8459206 0.34933057 -7.672424 -1.0205586
000140 8b f0 bb c0 88 85 10 bf 5a 07 85 be da ec 9b c0
       -5.873113 -0.5645375 -0.2598217 -4.8726625
000150 e1 11 44 c1 ef 27 91 3f d3 78 cf bf d1 c1 d2 c0
       -12.254365 1.1340312 -1.6208748 -6.586159
000160 48 d6 92 c0 58 4e 80 bf 5f c0 2f c1 e1 da c9 bf
       -4.5886574 -1.0023909 -10.984466 -1.5769922
000170 ad a7 48 c0 4c 32 74 bd 6d 4d ac c0 f4 ec 95 bf
       -3.135234 -0.05961828 -5.3844514 -1.1712937
000180 e9 70 93 c0 a2 8a 8f be 60 80 27 3f c7 64 e5 c0
       -4.607533 -0.28035456 0.6543026 -7.168552
000190 0b 45 ac c0 46 d7 9e 3e f7 fa af c0 11 50 da c0
       -5.383428 0.31023616 -5.4993854 -6.8222737
0001a0 91 81 a2 bf 56 07 b9 be ea cb e3 3f 0a 3c 07 c0
       -1.269579 -0.3613841 1.7796605 -2.1130395
0001b0 26 1d 0c c0 93 84 85 c0 3c 5a 65 c0 da fd dd c0
       -2.189279 -4.1724334 -3.5836325 -6.9372377
0001c0 1d 9c 8b bf be e4 7c bf 44 53 1c 40 6f 94 ca c0
       -1.0907017 -0.9878653 2.4425821 -6.3306193
0001d0 b9 82 32 bd 62 f3 25 c1 3f 0a 90 c0 ac 9d a2 c0
       -0.043581698 -10.37192 -4.5012507 -5.081747
0001e0 1f b5 55 3f 06 e9 db bf 9d eb 09 c1 cf f5 ab 3e
       0.83479494 -1.7180488 -8.620023 0.33585975
0001f0 25 ce e6 c0 e5 a3 e5 3d 66 70 02 c0 94 ef 1a c0
       -7.212664 0.11212901 -2.0381103 -2.4208727
000200 ec 34 8d 3e a2 57 6f c0 48 94 41 c1 60 56 f9 bf
       0.2757944 -3.7397237 -12.0987015 -1.9479485
000210 b1 f5 c2 be 81 c2 92 bf 3c 25 90 bd 3d 53 29 bf
       -0.38078073 -1.1465608 -0.07038352 -0.66142637
000220 8c ba 88 3e ff 0f 7c c0 fa c7 4e c1 02 4f 12 c0
       0.26704824 -3.9384763 -12.923822 -2.2860723
000230 d9 32 bd be ef 44 90 bf 4f bf 31 bd 56 04 20 bf
       -0.36952856 -1.1271037 -0.043395337 -0.62506616
000240 d0 8e 5f bf 00 6e ca be 7c b1 83 c0 7b 6b 24 c1
       -0.8732729 -0.39537048 -4.1154156 -10.27624
000250 bf 23 fc be 06 08 2c bf 12 84 9b 3e 13 36 57 c1
       -0.49246022 -0.6719974 0.303742 -13.450702
000260 79 75 a3 bf b6 2a da be 6f a7 82 c0 39 ba 22 c1
       -1.2770225 -0.4261071 -4.0829387 -10.1704645
000270 0c 8e fc be f4 f1 2b bf 64 d0 8f 3e 6d 51 57 c1
       -0.49327123 -0.67166066 0.28088677 -13.457379
000280 95 4e 76 bf 07 13 d6 be 8a a5 82 c0 f1 88 24 c1
       -0.96213657 -0.41811392 -4.0827074 -10.283433
000290 a5 e9 ff be 8d fc 31 bf 40 35 92 3e 20 14 57 c1
       -0.49982944 -0.69525987 0.28556252 -13.442413
0002a0 51 32 ec c0 56 74 1c bf b1 b6 06 c1 e6 ac 04 be
       -7.381142 -0.61115015 -8.419602 -0.1295658
0002b0 f0 c3 ee bc e7 69 a9 c1 4d d3 4d bf e4 6b 0e be
       -0.029146165 -21.17671 -0.80400544 -0.13908345
0002c0 3b d6 e1 c0 36 80 15 bf 08 ba fb c0 f6 ff 00 be
       -7.057401 -0.5839876 -7.866459 -0.12597641
0002d0 76 d4 8a bc 7b dd a6 c1 74 fc 44 bf a6 6d c7 bd
       -0.016947012 -20.858145 -0.7694771 -0.09737711
0002e0 c3 2b 57 3f 38 ac fa c0 98 a2 fd c0 82 de 38 bf
       0.8405115 -7.833523 -7.926098 -0.7221452
0002f0 3a b4 0c c1 14 10 63 3f 59 32 80 c0 3b 6b e2 bf
       -8.794001 0.8869641 -4.006146 -1.7688974
000300 2e 14 b4 3e 25 50 ca c0 53 52 a8 bc 78 07 ac 3d
       0.35171646 -6.3222833 -0.020547068 0.08399862
000310 ba eb 56 c0 b6 7f 3a c0 83 be 3c c0 e7 63 b8 bf
       -3.3581376 -2.9140449 -2.949128 -1.4405488
000320 b0 47 38 c1 e1 7f 8e c0 f0 86 86 c0 c4 16 1d c1
       -11.517502 -4.45311 -4.203972 -9.818058
000330 ce 25 1f 3e ba bb 17 c1 82 0e 39 3f a7 90 37 c0
       0.15541765 -9.483332 0.7228776 -2.8682039
000340 77 12 aa 3d 42 2b 54 c0 54 4a ae c0 d9 e1 e5 3f
       0.08304303 -3.3151402 -5.4465733 1.7959548
000350 e5 b1 31 c0 63 9c 00 c1 f8 46 45 be b3 d1 40 c0
       -2.7764828 -8.03818 -0.19265354 -3.012799
000360 32 c3 0b 3f 9d 51 ef c0 f8 8a c8 c0 d1 91 6d c0
       0.5459472 -7.4787126 -6.266964 -3.712025
000370 b0 09 5b 3f 3b dd 0b bf 46 7f be bf a9 b6 e3 c0
       0.85561657 -0.54634446 -1.4882591 -7.1160474
000380 d3 9a ba 3f b3 d7 18 c1 45 7b b8 c0 18 af be c0
       1.4578499 -9.552661 -5.7650476 -5.9588737
000390 49 34 67 be 0c 0e a1 3e ba 7e 89 c0 06 1f 53 c0
       -0.22578539 0.3145603 -4.2967196 -3.2987685
0003a0 ec ab 4f 3f 81 73 43 c0 ee 09 98 c0 c1 ad ab c0
       0.81121707 -3.0539248 -4.751212 -5.36496
0003b0 9e 7e 38 3f f4 27 07 c0 74 24 b6 c0 3b 9e b1 c0
       0.720682 -2.1118135 -5.69195 -5.5505652
0003c0 f6 27 75 bf 36 2d 94 c0 e7 f8 17 c1 cd ff fa 3f
       -0.957641 -4.630519 -9.498267 1.9609314
0003d0 ea 4e ff c0 b9 4b 5b c0 78 31 56 be 21 64 1b c0
       -7.978383 -3.4264967 -0.20917308 -2.4279864
0003e0 f9 3f 5b c1 e8 7a b9 bd 18 1e 72 c1 e5 ab 2a 3e
       -13.703118 -0.09056646 -15.132347 0.16667135
0003f0 90 ae d6 be 5c 4a 5c c1 53 ea 8f 3e 2b ef 8a c0
       -0.41930056 -13.768154 0.28108463 -4.3416953

l3.bias f4 [209]
000000 8b e8 29 bd cc 5e e2 c0 cc 43 d2 c0 35 db a0 c0
       -0.041481536 -7.074072 -6.570776 -5.0267587
000010 4a 10 90 c0 18 3e c8 c0 e4 dd 60 c0 40 25 2c c0
       -4.5019884 -6.25758 -3.5135431 -2.6897736
000020 44 30 39 c0 69 55 c4 c0 22 25 b7 c0 27 9c da c0
       -2.893571 -6.135426 -5.723283 -6.8315616
000030 a1 53 de c0 10 7a e4 c0 cd b6 8b c0 31 f6 cd c0
       -6.9477086 -7.1399 -4.3660645 -6.4363027
000040 2a 0e 34 bf 7c 5c 26 be c1 89 ae be 55 9f 7f be
       -0.7033411 -0.16246217 -0.34089473 -0.24963124
000050 34 d6 8d be a7 13 2c 3e 93 ba ad bd cb 64 29 c0
       -0.27702487 0.16804372 -0.08482852 -2.646777
000060 17 27 72 c0 59 0d c3 c0 5e cf aa c0 e4 63 82 c0
       -3.7836359 -6.0953794 -5.3378134 -4.0746937
000070 a5 90 df c0 bf 48 96 c0 15 44 86 c0 8d 97 21 be
       -6.986407 -4.69638 -4.195811 -0.15780468
000080 e6 42 c5 bd 20 17 db c0 0a c8 d0 c0 66 4c 09 c1
       -0.096319005 -6.846573 -6.524419 -8.581152
000090 db 8f c5 c0 9e 45 10 c1 bd a5 b7 c0 e5 34 0d bd
       -6.1738105 -9.016996 -5.7389817 -0.034474272
0000a0 76 45 86 be 9f 82 86 c0 e1 96 ff c0 42 c1 ec c0
       -0.2622487 -4.203445 -7.987168 -7.398591
0000b0 3d 69 a0 c0 5f 80 e6 c0 b4 1f 98 c0 f6 71 1e 3d
       -5.0128465 -7.2031703 -4.75387 0.0386829
0000c0 d2 32 95 3c 5b 5a 8b c0 7e 58 c3 c0 e5 0a cf c0
       0.01821271 -4.3547797 -6.1045523 -6.47008
0000d0 a0 79 6b c0 6e 8b b0 c0 ad c8 a7 c0 8c 1f bb 3b
       -3.6792984 -5.51702 -5.2432466 0.005710548
0000e0 cb 1f 36 3b 04 35 ce c0 b2 63 aa c0 ff d5 d7 c0
       0.0027789946 -6.4439716 -5.32467 -6.7448726
0000f0 8b 62 f3 c0 3b 76 2f c0 64 60 e8 c0 80 ac ba c0
       -7.605779 -2.7415912 -7.2617664 -5.833557
000100 dd d6 9e c0 d9 18 99 c0 32 f0 98 c0 04 32 ff c0
       -4.9637284 -4.784283 -4.7793207 -7.9748554
000110 be b7 99 c0 fa 07 c6 c0 55 4d 0e c1 6c 6e bf c0
       -4.8036795 -6.1884737 -8.89388 -5.982229
000120 d8 f6 c3 c0 f4 83 6f c0 05 08 c3 c0 5e 20 a5 c0
       -6.1238823 -3.7424288 -6.094729 -5.160201
000130 50 7f b8 c0 b5 05 b3 c0 f7 e3 c6 c0 c5 c1 c5 c0
       -5.765541 -5.5944467 -6.2153277 -6.1799035
000140 f0 1f 8e c0 2e 1a 00 c1 c7 b5 a9 c0 0e e6 f2 c0
       -4.4413986 -8.006392 -5.3034396 -7.590583
000150 98 c5 b0 c0 3d 3c 26 c0 50 cf 42 c0 36 07 ad c0
       -5.5241203 -2.5974267 -3.0439034 -5.4071302
000160 0c 56 8e c0 e2 d3 0a c1 08 9d 92 c0 2b aa 45 c0
       -4.448004 -8.676729 -4.581669 -3.0885112
000170 6b 29 5c c0 6e cd 44 c0 d5 1b f1 c0 5e 2c e5 c0
       -3.440028 -3.0750384 -7.5346475 -7.161666
000180 2a 99 17 c1 88 55 90 c0 51 2d e9 c0 06 49 a9 c0
       -9.474894 -4.510441 -7.286782 -5.290164
000190 13 41 a0 c0 6c e8 8f c0 e4 cb b5 c0 76 0b ad c0
       -5.0079436 -4.497122 -5.681139 -5.407649
0001a0 ea 65 da c0 23 3d 84 c0 03 a4 bd c0 17 62 b7 c0
       -6.8249407 -4.132463 -5.926271 -5.730724
0001b0 b1 9c a2 c0 cf f6 8e c0 d9 63 af c0 63 38 29 c1
       -5.0816274 -4.467628 -5.4809384 -10.576266
0001c0 72 9c ff c0 2a f0 01 c1 8e 29 e0 c0 3e 4f 04 c1
       -7.9878473 -8.121134 -7.0050726 -8.269346
0001d0 ae 12 18 c1 87 ec 10 c1 f4 d5 1e c1 d8 83 f3 c0
       -9.50456 -9.057746 -9.927235 -7.609844
0001e0 f2 98 a8 bf 4b 33 f3 c0 70 fe 5b c0 92 60 9a c0
       -1.3171675 -7.6000113 -3.4374046 -4.8242884
0001f0 e7 c0 89 c0 76 f6 90 c0 4e f7 9c c0 76 80 7d c0
       -4.3047976 -4.5300856 -4.9051886 -3.9609656
000200 89 71 93 c0 1f e2 ae c0 a7 1a ee c0 72 2a df c0
       -4.6076093 -5.4651027 -7.4407535 -6.9739313
000210 81 fa ad c0 37 11 ce c0 07 b4 11 c1 43 28 92 c0
       -5.436829 -6.4396014 -9.106452 -4.5674148
000220 b5 d1 b3 c0 5d e0 82 c0 3d 11 d6 c0 4f 7d 5e c0
       -5.619349 -4.089888 -6.6896043 -3.4763982
000230 3a 4c 61 c0 5e f1 a6 c0 67 7d 97 c0 47 6d 9b c0
       -3.5202775 -5.216964 -4.734058 -4.8570895
000240 4c 3c 6f c0 d2 73 ac c0 63 44 c2 c0 c6 a7 c2 c0
       -3.7380552 -5.389138 -6.070848 -6.08298
000250 ab 73 c0 c0 72 45 00 c1 db 93 be c0 06 30 a7 c0
       -6.0141196 -8.016954 -5.955549 -5.224612
000260 e8 be c1 c0 46 5e c7 c0 44 83 85 c0 91 13 9d c0
       -6.054554 -6.230258 -4.1722736 -4.9086385
000270 fa d7 fd c0 c3 18 d5 c0 fb a6 b7 c0 43 4f ba c0
       -7.9326143 -6.6592727 -5.7391334 -5.8221755
000280 5a b3 89 c0 8a e5 f4 c0 12 75 25 c1 26 89 c6 c0
       -4.3031435 -7.65302 -10.341082 -6.2042418
000290 5e df b8 c0 55 64 a4 c0 b4 53 b7 c0 ce 13 e6 c0
       -5.7772665 -5.1372476 -5.7289677 -7.1899176
0002a0 ae 01 84 c0 df ad 78 c0 0a 40 96 c0 a7 fb b0 c0
       -4.125205 -3.8856122 -4.6953173 -5.5307193
0002b0 e6 5b 38 c0 d8 03 b9 c0 69 20 b4 c0 86 f4 a0 c0
       -2.880609 -5.781719 -5.6289563 -5.029849
0002c0 fc 6e 90 c0 9d 95 69 c0 ea 79 a2 c0 5e 77 9b c0
       -4.513548 -3.6497567 -5.077382 -4.858321
0002d0 09 6e b5 c0 2e 11 8c c0 35 aa 04 c1 b9 75 80 be
       -5.669682 -4.377097 -8.291554 -0.25089815
0002e0 af e5 23 c0 65 2f 59 c0 65 47 a5 c0 a9 ad 8a 3e
       -2.5608938 -3.3935177 -5.164965 0.27085617
0002f0 c9 e5 b7 c0 06 2d 98 c0 ae 95 bf c0 9c f8 ca c0
       -5.7468 -4.755496 -5.9870214 -6.342848
000300 b7 9f ec c0 a5 f2 b6 c0 57 d1 a3 c0 20 ca 97 c0
       -7.3944964 -5.7171197 -5.119304 -4.7434235
000310 0b 81 b2 c0 2e e7 f4 c0 a6 41 fc c0 92 d5 a3 c0
       -5.5782523 -7.65322 -7.8830137 -5.1198206
000320 3e 61 80 c0 1d 4d 88 c0 01 2a b2 c0 21 33 ae c0
       -4.0118704 -4.2594132 -5.5676274 -5.4437413
000330 b9 b0 6f c0 6e 2e 63 c0 ad 7e b2 c0 08 d4 a4 c0
       -3.7451613 -3.5497088 -5.5779634 -5.1508827
000340 5c 37 9b c0
       -4.8505077
